snake/model/model.pth (torch, 47431 bytes, 6 tensors)

linear1.weight f4 [256, 11]
000000 03 e7 2f 3d be 9f a0 be 6c 2b 0b be ff bf d2 3d
       0.04294492 -0.31371874 -0.13590783 0.102905266
000010 e4 e0 25 be 06 b9 87 3e 72 d2 2d be 28 44 52 be
       -0.1619907 0.2650835 -0.1697481 -0.20533812
000020 07 19 0f 3e 1d 9c 77 be 78 c7 79 3e a5 08 74 3e
       0.13974391 -0.24180646 0.24392498 0.23831423
000030 63 c9 51 be 4d 5a 36 3d 5a f2 08 bd 17 ae 71 3e
       -0.20486979 0.04451971 -0.03343425 0.23601566
000040 e6 98 be 3b 98 50 d2 be 6f c9 b8 bc a8 51 3d 3c
       0.0058165668 -0.41077113 -0.022556989 0.011555113
000050 73 ae 8e be c3 51 bf 3e 8b 62 a4 3e 9b 85 8c 3e
       -0.2786747 0.37367067 0.32106432 0.27445683
000060 ef 8e 8b 3e fb c3 3a be d8 75 85 3d cf 92 ff 3c
       0.27257487 -0.18238823 0.065166175 0.031197933
000070 92 11 a1 bd 88 6c 91 3d 7c c1 9f bd 12 d1 bd be
       -0.078646794 0.07100779 -0.07800576 -0.3707357
000080 9e 71 ae 3e 10 cf f7 3d b4 be 35 be 32 e3 58 3e
       0.34071058 0.12100041 -0.17748529 0.21180418
000090 57 1c 55 be 07 ee 9d be c0 e7 12 3e a0 bb b7 3c
       -0.20811592 -0.30845663 0.14346218 0.022428334
0000a0 e9 ee 86 3e 0e db 8a be 0c 80 aa be 8c ed 09 be
       0.2635415 -0.2712025 -0.33300817 -0.13469523
0000b0 be 96 54 3e 25 d2 23 be 9b 7d 94 3e a8 66 74 bc
       0.20760629 -0.15998133 0.2900208 -0.014917053
0000c0 9d 64 84 be 52 c9 03 3d f2 c1 55 be 5d f4 46 3e
       -0.25858012 0.032174416 -0.20874766 0.19429155
0000d0 a6 51 5a bb d5 3e 93 bd 45 e0 57 3d b2 36 a0 3e
       -0.0033312826 -0.07189719 0.052704114 0.3129173
0000e0 24 28 c6 3d f2 df 99 bc 62 91 46 3e c5 4c e0 3d
       0.09675625 -0.018783543 0.19391397 0.109521426
0000f0 96 16 a7 3e df f6 2d bc 5c 9c 4d 3e 83 45 3d 3e
       0.3263442 -0.010617941 0.20079178 0.18483548
000100 9c d1 82 3d 2a 0b 35 bc 02 a4 e4 be 86 cc 92 3e
       0.06387636 -0.011050025 -0.44656378 0.28671664
000110 f5 0c 38 be 39 b9 4e be bb 8c dd 3d a0 d9 bd be
       -0.17973693 -0.20187844 0.10817858 -0.37080097
000120 90 c0 73 3d 70 23 75 3e 90 b5 11 be 6a 35 77 3d
       0.059509814 0.239393 -0.14229417 0.060353674
000130 3f f0 15 bc 7a f6 ac 3e b6 a2 71 be 39 c0 1c be
       -0.009151517 0.33781797 -0.23597226 -0.15307702
000140 39 51 ac be ff a6 75 3e dc e7 08 3e 49 1e 87 3e
       -0.33655718 0.23989485 0.13369697 0.26390293
000150 83 24 e4 3d 44 2e 8c 3e ba 30 d7 3d 66 7f 1c 3e
       0.111397766 0.27379048 0.10507341 0.15282974
000160 c8 3b 62 3b 2a ef bc 3e ef 95 1a 3c 27 92 80 3d
       0.0034520496 0.36901218 0.009435161 0.06277876
000170 6d cc e3 3d 00 1c 0a 3e fc 23 20 3e c3 a6 8b 3d
       0.111229755 0.13487244 0.15638727 0.06818917
000180 26 e3 48 3e 73 25 c7 bd 2f ac 93 3d a3 4b 87 be
       0.196179 -0.0972394 0.07210576 -0.26424894
000190 a1 b0 41 3e 38 c7 39 3e bd 7d eb 3d 33 9f fd 3c
       0.18915035 0.18142402 0.11498592 0.030959701
0001a0 ff 18 0f be a3 3c 9e be ce 04 b6 be 82 2e 4b 3e
       -0.13974379 -0.30905637 -0.3555054 0.1984196
0001b0 85 a1 8a bd f1 d6 6e 3e a6 be 27 bd c8 23 1e bd
       -0.06769089 0.23324181 -0.0409533 -0.038608342
0001c0 6e bf ae 3d 3c 7a 97 3e 50 37 92 3d bd d8 00 be
       0.08532606 0.29585445 0.07139456 -0.12582679
0001d0 e3 4e b6 3e e0 8d b1 3e e1 d0 50 be db 06 27 3e
       0.3560706 0.34678555 -0.20392181 0.16311209
0001e0 d4 7c 92 3e 3d 73 1b be 81 11 87 bd c8 3c 4c be
       0.2861086 -0.15180679 -0.065951355 -0.19945061
0001f0 f1 75 0b 3e ff a3 0c 3e 3d d1 80 3e ef 35 0f be
       0.1361921 0.13734435 0.25159636 -0.13985418
000200 1a b1 0d 3c cc 55 8c 3b ed 08 52 3d 34 ae 44 3e
       0.008648181 0.0042826887 0.051278044 0.19207078
000210 99 56 80 be 1c 61 5b be 15 ab ea 3d 33 c5 b0 be
       -0.2506607 -0.21423763 0.114584126 -0.3452545
000220 36 e1 9e bd b6 a0 28 3e 7a 9f b9 bd b1 aa 3c 3e
       -0.07757799 0.16467556 -0.09063621 0.18424489
000230 ce 4e ef 3d 7e de 9e be 7a 33 c0 3d 63 8d f2 be
       0.11684953 -0.31029123 0.093848184 -0.47373495
000240 24 d1 90 bd ac 98 83 3e c1 b8 94 bd f3 64 72 be
       -0.070711404 0.25702417 -0.072618015 -0.23671322
000250 9e 22 df 3d 36 18 b2 bb b1 a7 fe bd a5 5d 9c 3e
       0.108952746 -0.005435015 -0.12434328 0.30540195
000260 25 d4 3e be 1b 1a a8 bc 9e 89 6e be e4 b4 9b 3d
       -0.18635614 -0.02052026 -0.23294684 0.076028615
000270 f1 ae a8 3e f1 25 c0 3e 43 bb ae 3e ed 9e 75 3d
       0.3294597 0.37528947 0.34127244 0.059966017
000280 61 27 14 3e e5 b2 6c 3e 38 84 95 3e fa 38 04 bd
       0.14468147 0.23115118 0.29202437 -0.0322809
000290 b3 58 0b 3e 9a 67 90 be d8 a3 3d 3e f5 63 5c be
       0.13608055 -0.28204042 0.18519533 -0.21522506
0002a0 11 c4 27 3e 3c 9c 9b be 05 38 16 3e 5e 44 32 3b
       0.16383387 -0.30392635 0.14669807 0.0027201395
0002b0 fb ac b6 be 50 81 bd 3e e4 6d 8b 3d f7 33 3c 3e
       -0.3567885 0.3701272 0.06808069 0.18379198
0002c0 15 fa 44 3e 93 18 a8 3a ed 8c e1 3d 39 30 7e 3e
       0.19236024 0.0012824707 0.110132076 0.24823083
0002d0 1e 79 16 3d 88 b2 a8 bc 7e d3 7a 3e 02 69 39 3e
       0.0367366 -0.020592943 0.2449474 0.18106464
0002e0 33 e6 8c 3e ad b3 68 be e5 bb 92 3e 50 a2 9f bd
       0.27519378 -0.22724791 0.28658977 -0.077946305
0002f0 e4 23 a1 bc 0d 1d 0e 3d 76 e4 6a 3e 4b db 80 be
       -0.019670434 0.034695674 0.22938713 -0.25167307
000300 89 a3 79 3e 13 0b 8e bd 13 79 98 3e d4 01 a1 3e
       0.2437879 -0.06935706 0.29779872 0.31446707
000310 0b 0c cd bd 78 9e 76 3e 80 97 c5 3c a9 08 51 be
       -0.10012063 0.24083889 0.024120092 -0.2041346
000320 05 09 ff bc fe a9 77 be 54 80 a0 bc be 4e 35 be
       -0.03113223 -0.2418594 -0.019592442 -0.17705819
000330 af 30 e6 3d f2 67 b9 3e 5d 08 a0 3e 2a 57 bc 3c
       0.112397544 0.36212116 0.3125638 0.022990782
000340 e3 dc b7 3e 88 e5 77 be b4 68 4e bc d8 7e 5e 3e
       0.3591071 -0.24208653 -0.012598205 0.21728075
000350 f8 99 60 3e 4d 82 10 3e 6b cf c6 bd 79 19 cb 3c
       0.21933734 0.14112206 -0.097075306 0.02479242
000360 1c 4c 87 3d 6a 10 cb 3e a4 7b 50 be 37 79 b7 3e
       0.066063136 0.3966096 -0.20359665 0.35834667
000370 02 7f 82 bd 9e 1c 40 be c3 a7 56 3d 8c 79 96 3e
       -0.06371881 -0.18760917 0.052406084 0.29389608
000380 82 0f f6 3d 68 fa 20 3d c6 18 74 be 4a 16 11 be
       0.12014677 0.039301306 -0.23837575 -0.14168659
000390 2e bb 76 be fc 24 3b be 3c 9c 6d bd fc 8c 23 be
       -0.24094841 -0.18275827 -0.058010325 -0.1597175
0003a0 38 53 54 3e 4d 0f f2 3d a3 d3 43 be 03 4f 29 3e
       0.2073487 0.11819325 -0.19123702 0.16534047
0003b0 a1 32 ab 3e 35 96 04 bd c9 1e c6 3e 00 10 b1 3d
       0.33437064 -0.03236981 0.38695362 0.0864563
0003c0 7a 8d ea 3c 93 2d 53 3c 10 a9 3d 3e d5 3a a7 3e
       0.028631914 0.012889284 0.18521523 0.32662073
0003d0 af c0 95 3c 8e 50 67 3e d0 80 93 3e 6e cc 67 be
       0.018280355 0.22589323 0.28809214 -0.22636577
0003e0 66 93 2c be 1b 37 9e 3e 04 6c 77 3e 5e 03 3d be
       -0.16853103 0.30901417 0.24162298 -0.18458316
0003f0 22 2e 82 3e 1d 06 a4 bc c4 90 b3 3e bc 66 08 3e
       0.25425822 -0.020022446 0.35071385 0.1332044

linear1.bias f4 [256]
000000 b4 08 12 be 92 4a 5c 3e 45 37 1d 3d fe 2d 46 be
       -0.14261132 0.21512821 0.038382787 -0.19353482
000010 68 ac af 3e 99 c5 9d 3a 9f 4c 97 3d 88 eb 91 3e
       0.34311223 0.0012037038 0.07387661 0.2850001
000020 6e 40 31 3e d6 02 68 3e 51 8b a3 3e 3a 58 5d 3e
       0.17309734 0.22657332 0.31942227 0.21615687
000030 65 f8 16 3d bf 69 b1 3c 25 a0 1f be fa 01 f8 bc
       0.03685798 0.021656869 -0.15588434 -0.03027438
000040 19 1f ee 3d d1 b5 44 be fa 71 a3 3e ab 49 84 3e
       0.11627025 -0.19209982 0.31922895 0.25837454
000050 d2 86 27 be 19 9a 0a 3e 93 94 c3 bd 1f ec 2d 3e
       -0.16360024 0.13535346 -0.09549823 0.16984604
000060 b4 01 b2 3e 5f 77 c8 bd e0 ec ce bb bc a5 8c be
       0.34766924 -0.09788393 -0.006314859 -0.27470195
000070 3b 37 cb 3b ad 65 48 3e b4 1f 68 be 7e 3b 33 3e
       0.0062016523 0.19570036 -0.22668344 0.17503163
000080 73 05 95 3e 05 4d 8a 3d bc 35 b7 3e c5 25 27 3e
       0.2910572 0.067529716 0.35783184 0.16323002
000090 f5 c2 0f be 67 d8 4e 3c df cb 5e be 78 17 56 be
       -0.14039214 0.0126248365 -0.21757458 -0.2090739
0000a0 17 39 d0 3c 46 ac a1 3d c1 a4 2a 3e 5f 36 8d 3e
       0.025417848 0.07894187 0.16664411 0.27580544
0000b0 70 82 58 be 6b 2a 07 3e d4 12 8b be 3f f1 24 be
       -0.21143508 0.13199775 -0.27162802 -0.16107653
0000c0 6c 0e fc 3d 6f 1a 8d 3d 16 35 0c be 90 03 99 3d
       0.12307438 0.068898074 -0.13692126 0.074713826
0000d0 27 e6 07 be 11 1d c7 3c 89 6a 05 3e f2 e3 2b be
       -0.1327139 0.024305852 0.13028921 -0.16786173
0000e0 43 79 a0 3e f0 ab 3b 3d cb 1d a4 bd b2 94 f7 3d
       0.31342515 0.04581827 -0.08013495 0.12088908
0000f0 08 0a 80 3e 73 29 8d 3d 24 03 b9 3d 03 de f1 bd
       0.25007653 0.068926714 0.09033802 -0.118099235
000100 55 d8 89 3e 49 59 49 3e c4 47 61 3e 66 d2 15 3e
       0.2692286 0.19662966 0.22000033 0.14631042
000110 4f 37 8c 3e 44 80 8b 3e 95 ec 82 3e 05 1f 65 be
       0.27385947 0.27246296 0.25571123 -0.22375114
000120 cd 07 a2 3d 36 fc 01 be 15 8c a1 bd 40 e1 70 3e
       0.07911644 -0.12693867 -0.07888047 0.23523426
000130 c6 cd 4d 3d 5d 8d d6 3d 2b 09 ab 3e f4 1f f7 3c
       0.05024507 0.10476182 0.33405432 0.030166604
000140 69 a2 85 be 62 5e 23 3e 49 9e b3 3e cd 5d af bc
       -0.26100472 0.15953973 0.350817 -0.021407032
000150 98 b8 b3 3e 21 93 01 bd 68 51 55 3e 64 79 63 be
       0.3510177 -0.031634454 0.20831835 -0.22214276
000160 ed 77 13 3e e5 59 2c be 09 6c 02 be ad a1 87 be
       0.14401217 -0.16831167 -0.12736525 -0.26490536
000170 8a 18 80 3d e8 e2 db 3d 2f df 8b 3e d9 c6 8d be
       0.062546805 0.10736638 0.27318713 -0.2769077
000180 29 da d1 bd 8d 11 52 3e 97 5a 50 bc 48 7c 63 3e
       -0.10246689 0.20514508 -0.012716911 0.22215378
000190 81 a0 ee 3d 3d 38 64 be 4d 4f 2a 3e 79 e8 1e 3e
       0.116517074 -0.22287078 0.16631813 0.15518369
0001a0 c9 1e bf bd 88 e9 92 bd a0 6b 86 3e 82 3a 7d be
       -0.09332044 -0.07173449 0.26253986 -0.2472935
0001b0 40 ab c8 bd 9c 2b 08 be 3a 88 7d 3d b3 60 01 3e
       -0.09798288 -0.13297886 0.061897494 0.12634544
0001c0 45 e8 61 3d e7 e4 4b be e8 7b a6 3e ea 99 0c 3e
       0.05515315 -0.19911538 0.32516408 0.13730589
0001d0 bd 12 69 bc 83 f8 eb bd 16 6e 55 be 86 33 29 be
       -0.014225659 -0.11522009 -0.20842776 -0.16523561
0001e0 de a1 44 bd 58 99 a6 be 1c 1d b1 3e ee 86 d2 bc
       -0.04800593 -0.32538867 0.3459252 -0.025699105
0001f0 6d 58 21 3e b3 9a 92 3e 84 94 56 be 35 d6 87 3b
       0.15756388 0.2863365 -0.20955092 0.0041454085
000200 c2 91 a4 be 1d c9 b6 bd 0f 36 7c bd e8 48 9b 3e
       -0.32142454 -0.08925078 -0.06157499 0.3032906
000210 b5 43 9a bc 67 60 2a bd e5 39 28 be ea bf 7c be
       -0.018831113 -0.041595843 -0.16428335 -0.24682584
000220 b1 25 1c bd ea 43 89 bd ce 72 48 bd 90 43 2b 3e
       -0.038121883 -0.06702407 -0.04893761 0.16724992
000230 01 d9 3f be 03 b2 82 be fb 02 cc 3d f4 65 a9 3e
       -0.18735124 -0.25526437 0.09961506 0.33085597
000240 70 12 ad be da ac ea bd 14 56 87 be 52 65 47 be
       -0.3380313 -0.1145875 -0.2643286 -0.19472244
000250 74 83 ad 3e 66 36 70 be a8 7e 72 3e 4d 03 a8 be
       0.33889353 -0.23458251 0.23681128 -0.32815018
000260 b4 85 28 3e 16 9f a8 3d 22 35 86 be 94 5d 18 3e
       0.16457254 0.08233468 -0.26212412 0.14879447
000270 bd 69 92 be 66 eb 82 be 35 b1 5a be c8 49 89 3e
       -0.28596297 -0.2557022 -0.21356662 0.26814103
000280 52 1f 34 3e f1 e4 62 be 34 8b 97 be 43 6f b0 3e
       0.17590073 -0.22157647 -0.2959839 0.34459886
000290 de 91 02 3e 11 80 b4 bd f9 f7 9a be 2d 49 03 3e
       0.12750956 -0.08813489 -0.30267313 0.12820883
0002a0 79 3f 6e 3e 3c e3 cb bd 02 88 20 bd 68 72 2a 3e
       0.232664 -0.09955451 -0.039192207 0.16645205
0002b0 4f a7 d3 3e 8a ed 91 3e 53 ff 92 be 54 61 33 3e
       0.41338584 0.2850154 -0.28710422 0.17517596
0002c0 12 e6 6b 3e 0e 28 53 3e 50 31 c1 3e 7c 2d 79 be
       0.23036984 0.20620748 0.37732935 -0.24333757
0002d0 3e e8 8d 3e 04 6e d3 3d ef e8 e3 bd a7 61 79 bc
       0.2771625 0.10323718 -0.11128413 -0.015221036
0002e0 84 97 07 be e4 ad 71 3e 14 7c 80 3e 47 4e 8b 3e
       -0.13241392 0.2360149 0.25094664 0.27208158
0002f0 cb 4e 0a bd 3e 8a 8f be 3c 42 28 3c 0e a7 2d bb
       -0.03376655 -0.28035158 0.010269698 -0.0026497277
000300 16 4b a6 3e e2 df 94 bd 6b fe c9 bd 79 4a 8d bd
       0.3247916 -0.07269265 -0.098629795 -0.0689897
000310 3a cf 38 3d 7e d7 ff bd ca d2 b1 3e 36 cf a6 3e
       0.0451195 -0.12492274 0.34731132 0.32579964
000320 41 6e 8f 3e 63 ca 0d be 2f 3d 50 be 08 e0 99 3e
       0.28013805 -0.13846736 -0.2033584 0.30053735
000330 e0 9d 04 3e 1a a1 fd 3d 0a f2 07 3e 29 5f f6 3d
       0.1295085 0.12384243 0.13275924 0.12029869
000340 33 50 91 3d c1 95 38 be eb 42 e9 bd 57 61 37 be
       0.07095375 -0.18025877 -0.11389717 -0.17908226
000350 7f ed 88 be 4b b6 65 bd 4f c8 16 3d b6 2d a2 3e
       -0.26743695 -0.05608205 0.036812123 0.316755
000360 17 7b 1f be fb 23 e4 bd d0 05 a0 3e a5 88 9e be
       -0.15574299 -0.11139675 0.31254435 -0.30963627
000370 ce c5 9d 3e a8 99 a6 bd 26 29 6e be 19 de a9 be
       0.30814976 -0.08134776 -0.23257884 -0.3317726
000380 8a 42 89 be d3 8c 96 be 90 0c 49 3d 43 03 b2 3e
       -0.26808578 -0.29404315 0.049084246 0.34768113
000390 2c c5 83 3e 48 a1 8a 3d 57 85 91 be 00 a6 8d 3c
       0.25736368 0.06769043 -0.28422043 0.017291069
0003a0 69 69 fb 3d 20 16 73 bd c6 3d 87 3d 45 1a 66 3e
       0.12275965 -0.059347272 0.06603579 0.22470959
0003b0 fc 93 01 be 25 1b b6 3e 08 c3 7a be 48 44 24 bc
       -0.12654108 0.35567585 -0.24488461 -0.010026045
0003c0 07 cf 8d be a1 99 b0 3e d2 10 ad 3d 9e e4 35 bb
       -0.27697012 0.3449221 0.08450474 -0.0027754675
0003d0 36 a3 b7 bd ae a8 05 3d 43 00 92 be 91 f4 a7 3e
       -0.08966677 0.03263157 -0.28515825 0.32803777
0003e0 6a a2 35 3e cc cd 82 3e 77 f8 f7 bb cc 64 08 3e
       0.17737737 0.25547636 -0.007567461 0.13319701
0003f0 df 31 7d 3e fd 11 9f be 04 a8 21 3e 49 81 0c 3d
       0.24726056 -0.3106841 0.15786749 0.034302983

linear2.weight f4 [32, 256]
000000 72 d2 2e 3d 58 4a 98 3c b5 fd 9e bd 54 af 43 bd
       0.042681165 0.018590137 -0.077632345 -0.047774628
000010 e2 c3 a0 bd 97 d3 59 3a 62 56 5b bd e4 5f 8b 39
       -0.07849862 0.00083094224 -0.053549178 0.0002658359
000020 84 29 89 3c 97 54 35 bd cd 1c be 3c 23 d8 fd bc
       0.016743429 -0.044270124 0.023207093 -0.030986851
000030 cd 41 a9 bc 40 be be ba 24 c4 65 bd 4e f5 86 bd
       -0.02066126 -0.0014552549 -0.056095257 -0.06589757
000040 9f 2a 32 bd ad 02 83 bc 07 8b 49 bd 35 22 c2 3c
       -0.043497678 -0.015992487 -0.049204852 0.023697952
000050 12 12 40 bd 25 89 a6 3c 98 28 26 bc eb fd 02 3d
       -0.046892233 0.020329067 -0.010141514 0.031980436
000060 85 25 e8 3c 1c 83 12 3d fa e3 02 3d 48 0f 08 3d
       0.028338203 0.035769567 0.031955697 0.0332177
000070 af aa 3e bd f4 1c 3d bd c2 51 3c 3d 18 5a 53 bc
       -0.046549495 -0.04617019 0.045976408 -0.012899898
000080 22 fe 1f 3d 70 24 51 3d 65 6a 17 3d 6c 0c ae 3c
       0.03906072 0.05106014 0.0369667 0.021246158
000090 f0 89 d1 bc f2 a4 0a 3d c0 6f 19 3d de 60 26 3d
       -0.025578469 0.03384871 0.03746009 0.040619723
0000a0 90 e0 fe 3b d8 f1 d4 3c d4 aa ff 3c 77 58 4d bc
       0.007778235 0.025994226 0.031209387 -0.012533299
0000b0 f0 dc bc 3c 54 13 a2 bb 82 79 5d bd 00 e0 d1 b9
       0.02305457 -0.0049461517 -0.054070957 -0.0004003048
0000c0 00 e4 58 ba a8 18 6b bc a4 82 ec bc a3 50 e8 bc
       -0.0008273721 -0.01434914 -0.028870888 -0.028358763
0000d0 38 14 1a bc 88 ab 59 bc 2f f7 9f 3c 10 fe fb 3c
       -0.009404235 -0.013285525 0.019527046 0.030760795
0000e0 dc 8a 11 3c 74 5c 83 bd a4 e7 5e bd 2c 42 7b 3d
       0.008883204 -0.064141184 -0.05442013 0.061342403
0000f0 be be 2b bc bb 2f ad bc 5c 33 e0 bc 00 1d 50 bd
       -0.010482488 -0.021140924 -0.02736824 -0.050808907
000100 de 27 8d bd 60 21 0f bd 8a 1a 61 bd 21 cb 14 3d
       -0.0689237 -0.03494394 -0.05495695 0.03632653
000110 28 38 7f bc a0 63 43 3d f6 74 a2 bd c0 57 79 3d
       -0.015577354 0.04770243 -0.07932465 0.0608747
000120 e0 ff 3c 3c 32 bb 08 3d 75 70 16 3d 43 13 13 3d
       0.011535615 0.03338165 0.03672834 0.03590704
000130 82 1a a3 bc c0 0b aa ba 2c 28 58 bd 58 ab 73 bd
       -0.0199101 -0.0012973472 -0.052772686 -0.059489578
000140 7e 87 01 3d e5 5b 24 bd f4 63 f1 bc ec 49 80 bc
       0.031623356 -0.0401267 -0.029466607 -0.015660249
000150 d6 08 b8 bc 72 f4 b5 bc e4 99 0d 3d 84 49 6c bd
       -0.02246515 -0.022211287 0.03457059 -0.057687297
000160 58 8e 72 3c 9e 68 9f bd ca 84 3e bd b2 58 01 3d
       0.014804445 -0.07783626 -0.046513356 0.031578727
000170 20 fb e9 bc 73 15 25 bd 60 d8 04 3d 08 2d 43 3c
       -0.028562129 -0.04030366 0.032432914 0.011912592
000180 fa 64 42 3d c0 35 cb bc aa 8f 6b bd de 9b d1 3c
       0.04745958 -0.024805903 -0.057510056 0.025587019
000190 d9 48 f4 bc e6 59 52 bd 1c 75 12 3b c9 95 f0 3c
       -0.029819893 -0.051355265 0.0022347635 0.029368298
0001a0 b6 bb f0 bc be 7a 98 bd d2 5b 31 bd 06 4d 71 bd
       -0.029386383 -0.07445286 -0.043300457 -0.058911346
0001b0 00 4a 5c bd bc 26 d5 3c 1e e2 25 bd 69 31 03 3c
       -0.05378151 0.026019447 -0.040498845 0.008007386
0001c0 c0 6c 93 ba f0 85 61 3d 8c 39 65 bb 33 28 6e bd
       -0.001124762 0.055059373 -0.0034976928 -0.058143806
0001d0 3c f1 1e bd c0 04 08 bc 94 f0 9a 3c 58 95 e4 bc
       -0.038804278 -0.008301914 0.018913545 -0.027903244
0001e0 ca 87 85 3c ec f8 4b 3d 6f ef 5d bd 90 57 ae bb
       0.0163001 0.049797937 -0.05418342 -0.005320497
0001f0 94 35 0a 3b 16 c7 37 3d 74 ab ec 3c 72 cf 5e 3d
       0.0021089064 0.044867598 0.028890349 0.054397054
000200 90 ce 0a bd 64 bf 7a bd 80 48 9e 3a 0d 7a be 3c
       -0.0338884 -0.06121768 0.001207605 0.023251558
000210 b2 6d 10 3d ba 0b 7b 3d 6c a5 18 3d 80 ff 00 3a
       0.035260864 0.06129048 0.037267134 0.0004920885
000220 9b d9 8a bd 70 7a 3a bd 90 b4 ee bc a6 86 28 bd
       -0.06779786 -0.04552692 -0.029138833 -0.041144036
000230 e8 8c 27 bd 97 89 c7 bb 20 1e 56 bd ee fe 14 bd
       -0.040905863 -0.0060894 -0.052274823 -0.036375932
000240 48 53 44 bd 40 2e fd 3b fa 02 2c bd b0 f2 e1 bb
       -0.047930986 0.0077264607 -0.041995026 -0.0068953857
000250 d2 bc cd bc a4 b1 3e bd 04 f8 34 bd 5b ab 60 bc
       -0.02511445 -0.04655613 -0.04418184 -0.013712729
000260 0e 1a 11 bd d4 ee 72 bd 30 c9 57 bc e4 ec aa 3c
       -0.03542524 -0.059309795 -0.013170525 0.020864911
000270 40 cd e0 3c 84 d9 f7 3c fd dd 4c bd 4c 23 7e bc
       0.02744162 0.030255087 -0.050016392 -0.015511345
000280 64 ca 54 bd 5a 53 52 bd 18 c9 37 3d 47 a7 b1 bb
       -0.051950827 -0.05134902 0.044869512 -0.0054215523
000290 54 64 ac bc 92 7b b1 3c 74 f7 69 3d 68 bb 2f 3c
       -0.021043934 0.021665368 0.057120755 0.0107258335
0002a0 47 07 b1 3c c0 ba a5 bc 9b 4b 29 bd 4a a6 9e bd
       0.021609915 -0.02023065 -0.04133187 -0.07746561
0002b0 36 87 8f bc a4 72 a5 bc be f8 63 bd f5 97 37 bd
       -0.017520528 -0.020196266 -0.05565714 -0.044822652
0002c0 98 ac 72 bd a4 9c 94 3b c0 63 d9 ba b8 ea aa 3c
       -0.05924663 0.0045352746 -0.0016585514 0.020863876
0002d0 9e 3e 7d bd f9 ef 84 bd bd d8 93 bd 80 7e 1c 3d
       -0.061827295 -0.06491084 -0.07219074 0.038206577
0002e0 fc bd ed bc 88 d6 29 3c 8a 15 76 bd 1c 73 8b 3c
       -0.029021256 0.01036609 -0.060079135 0.017022662
0002f0 b0 52 93 bc 84 d9 a4 3c 14 09 d3 3c c0 7f a3 bb
       -0.017983764 0.02012325 0.025761165 -0.004989594
000300 a7 48 18 bd 00 22 24 3d 18 d2 11 3d 04 f4 26 bd
       -0.03717866 0.040071487 0.03560075 -0.040760055
000310 c9 12 53 bc 84 04 0f 3d c3 b0 21 bc 97 30 79 bd
       -0.012882897 0.034916416 -0.009868803 -0.060837355
000320 53 d8 99 3b 4c 1c 8e bc 0c a9 6b bd 47 92 33 3d
       0.0046949773 -0.017347477 -0.057534263 0.043840673
000330 dc 0c 40 bd 7d f9 35 bd ec fe c9 3b 6c 36 37 bd
       -0.046887264 -0.044427384 0.0061644223 -0.044729635
000340 4a 2b 91 3c f0 78 1c bc a0 72 b5 3c 52 b0 e2 ba
       0.017720837 -0.009550318 0.022149384 -0.0017294979
000350 c8 51 e8 3c c8 f4 92 bd ee da 21 bd 80 39 96 ba
       0.028359309 -0.071755946 -0.03951543 -0.0011461228
000360 02 cc 7e 3d 7f bc d2 3c 29 dd 69 bd b0 f3 83 3b
       0.062206276 0.025724648 -0.05709568 0.0040268525
000370 56 53 2b 3d ec 69 1e bd 3a b8 14 bd 60 0c e6 3c
       0.041827522 -0.038675234 -0.036308505 0.028082073
000380 7c ec 7d 3d 60 40 c4 bb 94 6d 12 bd 9c d2 f5 bc
       0.061993107 -0.0059891194 -0.035749033 -0.030007653
000390 09 39 00 3d 56 ec 63 bd b8 d1 6b 3c 80 cc 8a ba
       0.031304393 -0.05564531 0.014393263 -0.001058951
0003a0 00 b0 05 38 4a 4b 2e bd 00 c9 f1 bc e4 a4 30 bd
       3.1873584e-05 -0.04255227 -0.02951479 -0.043126002
0003b0 4c 05 af bc 29 0a 84 bd 12 58 37 3d f9 7a ff bc
       -0.02136483 -0.064472504 0.044761725 -0.031186568
0003c0 98 70 6d bd b0 19 0c 3a 80 03 7b ba 2b d4 30 3c
       -0.057968706 0.0005344404 -0.00095754117 0.010792772
0003d0 16 8e 4d bd 00 48 41 bb 24 61 c6 3c 8c f4 50 bd
       -0.05018433 -0.0029492378 0.024216242 -0.051014468
0003e0 5a 9d 4f bd 10 9c 15 3d 74 2e 07 3c b3 c5 81 bd
       -0.05068717 0.036525786 0.008250821 -0.06336536
0003f0 f1 9c 18 bd 18 f5 13 bc 8a ac 4c 3d 28 d6 1f bc
       -0.037259046 -0.009030603 0.049969234 -0.009755649

linear2.bias f4 [32]
000000 60 7d 8a bd 02 65 e0 bc 64 81 02 3d b8 3f 8a 3d
       -0.06762195 -0.027391914 0.031861678 0.06750435
000010 a6 b6 cd bc 22 7a 2c 3e 3c 6d 61 3d e9 d8 19 bd
       -0.025111508 0.16843465 0.055035815 -0.037560377
000020 40 c0 e8 3c 97 2c be bc 5f 49 23 bd da c0 ff bc
       0.028411984 -0.023214621 -0.039864894 -0.031219888
000030 09 ff aa bc 50 47 4f bd 9d f0 9a 3b b5 07 dd bb
       -0.020873563 -0.05060512 0.0047283904 -0.0067453035
000040 7f 26 46 3d 93 fb 1d 3d 8e 5b 78 3c 47 4b dc 3c
       0.048376556 0.038569998 0.015158547 0.026891364
000050 64 49 3b bc 1f bc 00 bd ac 1f 7a bd d7 c8 73 bd
       -0.011431072 -0.031429406 -0.06106536 -0.059517708
000060 e0 a3 b8 3b e8 ca 3f 3d cc a3 fd bc cf 3b 93 3c
       0.00563477 0.046824366 -0.030961893 0.017972855
000070 cf b1 81 3c d0 1e 8a bb 7c f9 c5 3c 20 03 a3 3d
       0.015831856 -0.004215099 0.024166815 0.079595804

linear3.weight f4 [3, 32]
000000 a3 4b 26 3e 5b 69 1e be aa 69 87 3d 84 74 62 be
       0.1623979 -0.15469877 0.06611951 -0.2211476
000010 bd ba 01 3e a4 e4 c3 bd f5 38 3a be 60 4b 87 3d
       0.12668891 -0.09565094 -0.1818579 0.066061735
000020 44 32 0e be bd f6 50 bb 5d be d4 3d 3a e6 30 3d
       -0.13886362 -0.0031885349 0.103878714 0.04318831
000030 7d 39 8c 3c 8a b5 65 bd 43 71 c9 bd 30 82 50 3c
       0.017117256 -0.056081332 -0.09836056 0.012726352
000040 23 6e bb 3d 3e 97 06 be f9 4c 07 be b7 87 1a bd
       0.09151866 -0.13143632 -0.13212956 -0.037727084
000050 90 26 8a 3d 6d a7 01 be 08 41 24 bd 2c cd cd 3d
       0.067456365 -0.12661524 -0.04010108 0.10048899
000060 4a 40 6c 3d 21 3c 0f bc 1b ea 83 3d d5 b9 92 bd
       0.0576785 -0.008742363 0.064411364 -0.07164351
000070 cf 90 29 3c 34 41 50 bd 1e 57 25 3e 5d 25 60 be
       0.010349466 -0.050843433 0.16146514 -0.21889253
000080 c1 b5 22 3e 5f b2 05 be 59 11 bd 3d 48 97 ae 3d
       0.15889646 -0.13056324 0.092318244 0.08524948
000090 bd 2e 93 3d 52 02 3d be f4 04 4f be 6b a9 ed bd
       0.07186649 -0.18457916 -0.20216733 -0.116045795
0000a0 1b ee ed 3c 17 0e 04 3e 42 76 bf bc 9e b3 13 3e
       0.029044202 0.12896 -0.02337182 0.14423987
0000b0 f5 c4 ef bb 31 53 ec 3d 1a 3f 64 3d 48 29 cd bc
       -0.0073171803 0.11539305 0.05572424 -0.025044098
0000c0 51 2a e4 3d 5a 7c 3d 3d 44 cb 3a 3e 9f ea ae bd
       0.11140884 0.04626117 0.18241602 -0.08540844
0000d0 0d 45 0f 3e 3c 37 9e 3c 56 0a 90 bd d4 53 6e bc
       0.13991185 0.019313447 -0.070332214 -0.014546353
0000e0 27 b4 f9 bd 63 5c 0a be 0c 4d 34 be c4 4d c5 3d
       -0.121925645 -0.13511805 -0.17607516 0.09633973
0000f0 6a 56 5f bd ab 0d d4 bd c1 49 1f 3d d9 a9 45 be
       -0.05452577 -0.103541695 0.038888697 -0.19303073
000100 00 e6 c9 bb 73 ee df bd bf 68 3c 3d cc d5 b8 bd
       -0.0061614513 -0.109341525 0.04599833 -0.090251535
000110 8e f8 8c 3b e1 bc 63 be de 13 58 be 08 9a e7 bd
       0.004302091 -0.2224002 -0.21101329 -0.11308676
000120 58 a9 cc 3d b1 1f 03 3e 35 3d 2b 3e bb 67 ec 3d
       0.09993237 0.12805058 0.16722567 0.115432225
000130 87 d8 0e be 6a bb 99 3d 61 37 de bd ea 38 33 be
       -0.13949786 0.075064495 -0.108504064 -0.1750218
000140 ec 72 17 3e 35 61 d0 bd a7 b5 66 3d 23 89 20 3e
       0.14789933 -0.10174791 0.05632558 0.15677314
000150 ee bc cb bc 7a b0 8e bd 0b ac 1f bd 01 63 21 bc
       -0.024870362 -0.06967254 -0.038982432 -0.0098502645
000160 ef 1c b1 bd 9a 3e 94 3c 34 81 01 be f3 b1 88 bd
       -0.08648097 0.018096257 -0.12646943 -0.06674566
000170 9c 9e de 3c b5 03 8c bd a2 b5 d6 3d 92 0a e8 bd
       0.02717524 -0.068366446 0.104838625 -0.11330141

linear3.bias f4 [3]
000000 8b b2 2b bd 3f 43 6b bd a6 36 8a be
       -0.04191832 -0.057437178 -0.26994818
